data.pth (torch, 5015 bytes, 6 tensors)

l1.weight f4 [8, 54]
-0.19010605 0.47651547 0.5080114 -0.3409121 -0.22179455 0.943154 0.6431286 0.5266583
0.6827944 0.3271654 -0.33632666 -0.11729267 0.41178733 -0.11996046 0.34188217 -0.37152493
-0.35053444 1.1693052 -0.50398964 -0.6852554 -0.115012355 -0.6409128 -0.6862654 -0.55859894
-0.27648297 -0.17707387 -0.32168907 0.7878026 0.27635714 0.43161634 0.68843806 -0.17407931
-0.095620506 0.54138005 0.6646045 -0.19640397 0.3562844 0.6604581 0.6077868 0.58159643
0.6549667 -0.43149513 -0.22154894 0.49037948 0.3557836 0.80453026 -0.4996797 -0.10731111
-0.16833982 -0.5488017 -0.14832869 -0.53204787 0.6036807 0.26866034 0.64925665 0.8811907
-0.6674505 0.5365496 0.13337806 -0.18009092 -0.37903664 -0.4960923 -0.73445284 -0.3347631
0.39764595 -0.12653483 -0.15803245 -0.24911314 0.72473615 0.19405635 0.55218875 -0.16180314
-0.18433376 0.6846743 0.44347224 0.5987965 0.6221331 0.4573471 -0.04987199 0.4564365
-0.38325208 1.0056543 -0.19723384 0.9141369 0.014109144 -0.029082697 0.36419162 -0.44844306
0.7397312 0.0044628535 -0.14454554 -0.67291427 -0.24535687 -0.13191134 -0.10869178 -0.39219052
-0.13322498 0.63052297 -0.28679362 0.88419557 0.74357855 0.48622957 0.45142826 -0.41317806
0.13470678 -0.33513367 -0.12116488 0.34786397 0.5658233 -0.4341694 0.33079514 -0.036284145
0.27936944 0.08002998 0.21810153 0.3787194 0.27486303 0.33128273 0.15163428 -0.18793671
0.17338873 -0.20368245 -0.11232769 -0.16587475 0.09725411 0.06663673 0.2875123 -0.09433727
0.5554147 0.060708083 -0.068062715 -0.2919308 0.04009529 -0.06593337 0.29858622 -0.5439815
0.32494387 -0.4310175 -0.031998336 -0.3241131 0.49741048 0.5820871 -0.16724402 -0.20743707
0.35601303 0.39733183 0.45024365 0.4326673 0.043464378 0.49264094 0.007043147 -0.1865403
0.03130888 -0.2698079 0.9826203 0.4662816 0.36453524 0.55494064 -0.38156492 0.2333854
0.29297265 0.50460607 0.24930897 -0.29598713 0.7151174 -0.05654933 0.17968561 0.38780785
0.48209703 0.6114819 0.70413154 0.7154259 -0.2359923 -0.101663046 0.3304538 -0.18032084
-0.18141283 -0.12493893 -0.25055304 0.2750496 0.24554718 -0.16255674 0.1165315 -0.11247348
-0.14720352 -0.34037605 0.19673915 -0.016434394 0.4206643 -0.35918814 0.34266108 -0.53570306
0.22630714 -0.005354499 0.41009894 0.54942214 -0.16521782 -0.2876754 0.24436213 0.62055176
0.4218372 0.5890718 0.037771005 0.3028402 0.076442696 -0.14968078 0.10747062 0.060039498
-0.1611879 0.1805346 0.1766504 0.5008268 -0.21831137 0.3778951 0.5651688 0.42242187
-0.31076834 0.7804747 -0.0063245706 0.032220464 -0.112573825 0.8503579 0.31786928 -0.06573014
0.2921749 0.096847616 0.017194586 0.08032522 0.13836768 0.1389981 0.8963794 0.11793172
-0.17471756 0.73306733 -0.31425324 -0.23374036 -0.17293997 -0.21961583 -0.20023228 -0.0064754006
0.30754876 -0.04686312 -0.25843677 0.8409628 -0.15444234 0.619203 0.55910313 0.11248626
-0.31155023 0.18204996 0.9824121 0.047464605 0.0036962957 0.22036628 0.17082502 0.32222247
00000000: 29ab 42be d6f9 f33e 090d 023f 088c aebe
00000010: 1c1e 63be 8a72 713f 13a4 243f 14d3 063f
00000020: 9dcb 2e3f 3982 a73e 0233 acbe 2437 f0bd
00000030: cad5 d23e d4ad f5bd 2e0b af3e 8438 bebe
00000040: 4079 b3be cbab 953f 7705 01bf e66c 2fbf
00000050: 998b ebbd dc12 24bf 17af 2fbf 5700 0fbf
00000060: 2d8f 8dbe da52 35be 6eb4 a4be 6ead 493f
00000070: af7e 8d3e d1fc dc3e 7a3d 303f d941 32be
00000080: afd4 c3bd e297 0a3f 8523 2a3f 1f1e 49be
00000090: e96a b63e c813 293f ea97 1b3f 81e3 143f
000000a0: e6ab 273f eeec dcbe badd 62be 0513 fb3e
000000b0: 4529 b63e b2f5 4d3f 05d6 ffbe edc5 dbbd
000000c0: 4661 2cbe 457e 0cbf 7ae3 17be 4a34 08bf
000000d0: d18a 1a3f d98d 893e af35 263f b795 613f
000000e0: 09de 2abf 515b 093f 4294 083e c169 38be
000000f0: 1711 c2be cfff fdbe 1a05 3cbf 1266 abbe
00000100: 4098 cb3e 5992 01be 42d3 21be 8417 7fbe
00000110: 4f88 393f b5b6 463e 3e5c 0d3f b9af 25be
00000120: fdc1 3cbe d146 2f3f cb0e e33e ba4a 193f
00000130: 1d44 1f3f 6629 ea3e 9246 4cbd 0cb2 e93e
00000140: 9e39 c4be 48b9 803f abf7 49be e004 6a3f
00000150: 0a2a 673c d63e eebc 5377 ba3e 549a e5be
00000160: 065f 3d3f 213d 923b bf03 14be 1c44 2cbf
00000170: d53e 7bbe c413 07be cc99 debd 32cd c8be
00000180: 216c 08be f469 213f 9dd6 92be a45a 623f
00000190: 2a5b 3e3f 15f3 f83e 9b21 e73e 138c d3be
000001a0: 93f0 093e a496 abbe 4b25 f8bd 3a1b b23e
000001b0: ccd9 103f 744b debe fb5d a93e af9e 14bd
000001c0: 8309 8f3e c2e6 a33d 0256 5f3e 82e7 c13e
000001d0: d9ba 8c3e e49d a93e 0446 1b3e 7b72 40be
000001e0: d18c 313e 2292 50be 0f0c e6bd 12db 29be
000001f0: 2a2d c73d d778 883d d034 933e e633 c1bd
00000200: a82f 0e3f 0aa9 783d 7764 8bbd f477 95be
00000210: f53a 243d 1308 87bd 4be0 983e 5f42 0bbf
00000220: 0b5f a63e 53ae dcbe b010 03bd 27f2 a5be
00000230: 96ac fe3e a903 153f 0442 2bbe 626a 54be
00000240: 5747 b63e 146f cb3e 5686 e63e 9186 dd3e
00000250: b407 323d 6f3b fc3e 33ca e63b 6c04 3fbe
00000260: bd3d 003d 4324 8abe 018d 7b3f 76bc ee3e
00000270: 5da4 ba3e 9710 0e3f 7a5c c3be 95fc 6e3e
00000280: 8300 963e dd2d 013f da4a 7f3e a08b 97be
00000290: ef11 373f 45a0 67bd 81ff 373e c08e c63e
000002a0: 6cd5 f63e 148a 1c3f f741 343f 2726 373f
000002b0: f7a7 71be b734 d0bd 3e31 a93e 07a6 38be
000002c0: 49c4 39be fbdf ffbd 7d48 80be 4dd3 8c3e
000002d0: b870 7b3e 4675 26be 11a8 ee3d 7f58 e6bd
000002e0: 85bc 16be c545 aebe fd75 493e 6ca1 86bc
000002f0: 5061 d73e 82e7 b7be 4671 af3e d623 09bf
00000300: 0fbd 673e cb74 afbb 7df8 d13e eea6 0c3f
00000310: dc2e 29be 314a 93be 113a 7a3e 7bdc 1e3f
00000320: 0cfb d73e 69cd 163f c5b5 1a3d df0d 9b3e
00000330: fd8d 9c3d eb45 19be 8e19 dc3d faeb 753d
00000340: 710e 25be 10de 383e d8e3 343e 2f36 003f
00000350: 048d 5fbe 777b c13e e7ae 103f ae47 d83e
00000360: 071d 9fbe 31cd 473f 583e cfbb 9bf9 033d
00000370: 1b8d e6bd 0eb1 593f c3bf a23e 869d 86bd
00000380: f397 953e 0b58 c63d a9db 8c3c 8d81 a43d
00000390: 42b0 0d3e 8555 0e3e 1f79 653f 3086 f13d
000003a0: 29e9 32be 4daa 3b3f cde5 a0be a259 6fbe
000003b0: 2d17 31be f9e2 60be b109 4dbe 992f d4bb
000003c0: 0877 9d3e 8bf3 3fbd d351 84be 5749 573f
000003d0: 2226 1ebe 1684 1e3f 6221 0f3f 325f e63d
000003e0: 8383 9fbe 4e6b 3a3e 5c7f 7b3f 3f6a 423d
000003f0: 8d3d 723b b3a7 613e c1ec 2e3e 58fa a43e

l1.bias f4 [8]
0.6872486 0.9263669 0.7309529 0.43585762 0.59157246 0.51196027 0.5920666 1.2013732
00000000: 86ef 2f3f 6226 6d3f bb1f 3b3f bb28 df3e
00000010: 4b71 173f d40f 033f ad91 173f 99c6 993f

l2.weight f4 [8, 8]
-1.3720921 1.000174 0.8077146 0.14061184 -1.2658472 0.8701371 -0.29723126 1.5044161
-0.047560245 -0.18550004 -0.33012664 -0.07343987 -0.3035293 -0.010019541 -0.12293215 0.13656992
-0.06715372 -0.10415288 1.0225455 0.3655379 -0.9763593 0.0036130454 -1.4081087 0.45198196
1.1989825 -1.0132735 1.2465608 1.2573475 -0.16677003 0.4674301 0.060954515 0.30002138
-0.23545888 -0.086609036 -0.19031763 -0.17250055 0.20345768 -0.21935289 -0.21753037 0.055366725
1.015763 1.264667 -0.46430165 -0.74571615 0.8532951 -0.7386999 -0.62551624 1.4363486
0.044863343 -0.22414115 -0.25622845 -0.3388515 0.027014792 0.22725931 -0.2708626 0.15130368
-0.20004825 0.6645118 0.7492254 -0.07368589 -1.1382858 -0.90897584 -1.3308328 0.6129785
00000000: b7a0 afbf b405 803f 62c6 4e3f 8dfc 0f3e
00000010: 4807 a2bf 4ec1 5e3f b22e 98be b590 c03f
00000020: 88ce 42bd b9f3 3dbe 5c06 a9be a467 96bd
00000030: 3168 9bbe 0029 24bc dac3 fbbd fcd8 0b3e
00000040: e487 89bd 1b4e d5bd c5e2 823f c927 bb3e
00000050: aff2 79bf d8c8 6c3b e83c b4bf 2e6a e73e
00000060: 4278 993f f2b2 81bf 4e8f 9f3f c3f0 a03f
00000070: c3c5 2abe 0053 ef3e 71ab 793d 679c 993e
00000080: 221c 71be 1460 b1bd a0e2 42be fca3 30be
00000090: 3657 503e 0b9e 60be 48c0 5ebe 38c8 623d
000000a0: 8604 823f 9ce0 a13f f2b8 edbe 41e7 3ebf
000000b0: 8c71 5a3f 701b 3dbf d521 20bf 45da b73f
000000c0: a0c2 373d 4285 65be 6030 83be f27d adbe
000000d0: 204e dd3c aab6 683e 81ae 8abe 5aef 1a3e
000000e0: 73d9 4cbe 721d 2a3f 3ccd 3f3f a1e8 96bd
000000f0: 59b3 91bf a4b2 68bf bb58 aabf 29ec 1c3f

l2.bias f4 [8]
0.6907806 -0.3274825 0.18779187 0.084275715 -0.33306813 0.6930506 -0.2384176 0.013218387
00000000: ffd6 303f c9ab a7be 834c 403e bf98 ac3d
00000010: e887 aabe c46b 313f be23 74be ef91 583c

l3.weight f4 [7, 8]
-0.67277205 -0.2599637 -0.48263675 -0.9931008 0.048161924 -1.1580608 -0.1335036 -0.6500441
-0.95351386 -0.262438 -0.4703973 -2.0055437 -0.0020510852 0.902503 0.24049428 -1.0333707
-0.87650937 0.3377289 -0.87921125 0.07648115 0.15540037 0.45625734 -0.24874985 -0.82608414
0.942166 -0.26071632 -1.8450801 -1.2675982 0.29080346 0.03855217 -0.015087843 -1.2890596
0.14476843 0.041876912 0.53819555 -0.0826748 0.0802519 -1.2344257 -0.2683309 -0.9675817
-0.84383094 0.26649264 -0.99186265 0.8125211 0.2807469 -1.5273293 -0.15162371 -1.6785349
0.22778784 0.19716737 0.22837372 -1.489545 -0.32116276 -0.33846626 -0.23729914 0.9494418
00000000: ca3a 2cbf f619 85be 2a1c f7be db3b 7ebf
00000010: 7045 453d 563b 94bf 2bb5 08be 4a69 26bf
00000020: 7c19 74bf 465e 86be ead7 f0be d45a 00c0
00000030: 806b 06bb 700a 673f 2244 763e 7e45 84bf
00000040: eb62 60bf cdea ac3e fd13 61bf 26a2 9c3d
00000050: 4621 1f3e 909a e93e 48b8 7ebe 407a 53bf
00000060: ca31 713f 9c7c 85be 962b ecbf a840 a2bf
00000070: 31e4 943e e1e8 1d3d 0033 77bc e8ff a4bf
00000080: 2d3e 143e 2087 2b3d 2fc7 093f 6851 a9bd
00000090: 1c5b a43d a901 9ebf ab62 89be 6fb3 77bf
000000a0: 4e05 58bf b971 883e b6ea 7dbf 6201 503f
000000b0: 0fbe 8f3e 877f c3bf 3f43 1bbe 3bda d6bf
000000c0: 3741 693e 3ee6 493e cdda 693e 69a9 bebf
000000d0: 726f a4be 734b adbe 8cfe 72be 9e0e 733f

l3.bias f4 [7]
1.9961947 -1.0644875 -0.4320114 -0.38660577 -0.9381616 -0.4338411 -0.94317436
00000000: 4f83 ff3f 2041 88bf 9930 ddbe 31f1 c5be
00000010: 5c2b 70bf 6c20 debe e073 71bf
